Models/CNNModel_weight.pth (torch, 90848 bytes, 8 tensors)

conv_block.0.weight f4 [10, 1, 5, 5]
000000 2b 5e e3 bb 7c ba 80 3d c5 9a 9f 3d 25 ac 2a 3e
       -0.006938716 0.06285569 0.07793192 0.1666723
000010 24 bb 6f 3e 3e 67 40 be 83 1d 39 be 8a bc 52 be
       0.23411232 -0.18789384 -0.18077664 -0.20579734
000020 63 7f 86 3d 3f e0 a4 3e 71 74 6b be 9d 1e 5a be
       0.06567266 0.32202336 -0.22993638 -0.2130074
000030 b8 01 28 be 82 01 04 be cd bb c8 3e 6a f7 cc bd
       -0.16406906 -0.128912 0.3920578 -0.10008128
000040 85 f2 3a bd 3d 0c b8 bd 0e 0b a3 bd 86 4f 79 3e
       -0.04564144 -0.08986709 -0.07961093 0.24346742
000050 90 b6 d5 bd 13 f6 db bc 03 37 cc bd c9 6e 9a 3c
       -0.10435212 -0.026850736 -0.0997143 0.018851655
000060 17 03 f2 3d dd 7d 87 bc 61 8a 04 be 89 ae 75 be
       0.118169956 -0.016539508 -0.12943412 -0.23992361
000070 e4 21 10 be 08 39 1f be 53 35 65 3e c1 4a b1 3d
       -0.14075428 -0.155491 0.22383623 0.08656836
000080 d9 e7 18 be 2e b6 a6 be 29 86 5b bd 51 d9 26 3e
       -0.14932193 -0.32560867 -0.053594742 0.16293837
000090 61 b4 c4 3e d5 1f 05 3f d5 ee cd 3e d8 a0 b3 3d
       0.38418868 0.52001697 0.40221277 0.08770913
0000a0 0b 52 b7 bd 6f 66 fb bb 83 d8 9c 3e 00 c8 ba 3e
       -0.08951195 -0.007672123 0.30633935 0.36480713
0000b0 80 be 87 3e 27 d9 88 be c9 f0 92 be 35 5a c7 be
       0.26512527 -0.26728174 -0.2869933 -0.3893601
0000c0 42 7f 9f be 77 94 c7 3d fe fb 36 bb d8 65 96 3e
       -0.31151778 0.09745114 -0.0027921195 0.29374576
0000d0 5d 40 9e 3e a3 09 b9 3e a2 8c b5 3e 3a 93 25 be
       0.3090848 0.36140165 0.35458857 -0.16169444
0000e0 76 1a 8b bd 58 ed da bd 5e ca fc 3d ed 79 ab bc
       -0.067921564 -0.10689801 0.12343286 -0.020932162
0000f0 c2 cb 07 be dd 40 39 be d3 5c 2e bd 2e c8 48 be
       -0.13261321 -0.1809115 -0.042568993 -0.19607612
000100 af 09 11 be 9b ab 25 bd 92 a1 4e be 44 6f 52 be
       -0.1416385 -0.04044686 -0.20178822 -0.20550257
000110 09 f6 92 be 8e 1f 29 be cf 11 2c be dc 07 33 bd
       -0.28703335 -0.16515943 -0.16803668 -0.043708667
000120 39 96 6b be 4a a0 26 3d 67 c0 25 3d e8 fe 90 ba
       -0.23006524 0.040680207 0.040466692 -0.0011062296
000130 a4 2d 9e 3e a2 c2 cc 3d ea c1 65 bd eb b5 88 bd
       0.30894196 0.09998061 -0.056093134 -0.06675323
000140 6b 37 8f 3e 19 b1 96 3c 8f fb e7 bd d6 c4 9a be
       0.27971968 0.018394994 -0.11327278 -0.302283
000150 03 0f 1d 3e 42 b3 1e 3e 76 98 8d be 76 cc 0a bf
       0.15337758 0.15498069 -0.2765538 -0.5421823
000160 c2 72 51 bd 34 47 f1 3e 17 76 ce bd bf 7a 8c be
       -0.051134832 0.47124636 -0.100811176 -0.27437398
000170 9f 40 18 be 73 49 03 3f 78 37 6c 3e 31 3d 7e 3e
       -0.14868401 0.5128395 0.23068035 0.2482803
000180 ed e6 71 3e 41 1e 18 3e a1 7d a0 3e bb a3 cb be
       0.23623247 0.14855291 0.31345847 -0.39773354
000190 60 0b 76 3e cd 87 9e bc a8 f6 54 bd 57 ec 95 be
       0.24027777 -0.019351864 -0.051993042 -0.29281875
0001a0 6f fa 0f be 39 46 2d 3e 1a 22 c2 3e cf fb 35 3e
       -0.14060377 0.16921319 0.37916642 0.17771839
0001b0 ee 73 c6 be 7a d8 bc be 3a 10 8c bd 56 85 03 3e
       -0.38760322 -0.3688391 -0.068390325 0.12843832
0001c0 82 8a 04 3f 0b 2b 28 bd b9 91 b7 be c2 96 54 be
       0.51773846 -0.041056674 -0.35853365 -0.20760635
0001d0 bf d8 ed 3d 6d 5a 0a 3f 29 89 3c 3e 6a 1f 8c 3d
       0.11613607 0.5404423 0.18411697 0.06841929
0001e0 3c 26 52 be 33 5c a5 bd e6 61 5f 3e 57 62 48 3e
       -0.20522398 -0.08074226 0.21814689 0.19568764
0001f0 c0 bf 8a 3e 19 ca 10 be f5 e2 42 3e ee 9c 82 3e
       0.2709942 -0.14139594 0.1903189 0.25510353
000200 7e 5a a8 3e 6e d2 6c 3d 35 0d b2 bd 32 71 29 3e
       0.3288154 0.05781787 -0.08693925 0.16547087
000210 5c 4b 9e 3d ee 7d 15 3e f9 18 78 be 3c c4 05 bd
       0.077292174 0.1459882 -0.24228276 -0.032657847
000220 dc 34 ab 3d e2 26 8b 3e 98 ea 54 3e 01 a4 1f 3c
       0.083596915 0.27178103 0.20792615 0.009743691
000230 3f 92 30 3d ae d2 41 3e d4 0b 7f 3e 9d c0 c7 3d
       0.04310822 0.18928024 0.24906856 0.09753535
000240 86 87 6e be 27 7c 60 be 3f 8c 50 be 37 b6 bb 3d
       -0.23293886 -0.2192236 -0.20366 0.09165614
000250 1a 48 70 3d 3a 39 1b be 52 21 84 be e8 3b 93 be
       0.05866251 -0.15158549 -0.2580667 -0.28756642
000260 b7 86 ae bd 83 08 12 3c 0b e6 5b 3e 3c f7 2b be
       -0.085217886 0.008913162 0.21474473 -0.16793531
000270 54 8e b8 bc ab a3 ef bd 64 7e 07 3e b9 0f 50 3e
       -0.022528805 -0.11701139 0.13231808 0.20318498
000280 b9 56 88 be 68 59 13 be bf 81 bc bd 18 02 97 3e
       -0.26628664 -0.14389575 -0.092044346 0.29493785
000290 08 39 f3 3d 1a e6 53 be 66 4a 45 be 20 b8 ae 3d
       0.11876112 -0.20693246 -0.19266662 0.08531213
0002a0 12 ab af 3e a3 50 7b 3e 33 a6 5c bd 86 eb 17 3c
       0.34310204 0.24542479 -0.053869437 0.009272462
0002b0 cb 3e 35 3d 36 6a 4a 3e 24 f3 f4 3b 09 20 b2 bd
       0.044249337 0.19767079 0.0074752737 -0.086975165
0002c0 61 40 6f be a2 1c fc bd 46 5b 4d be bd 25 68 be
       -0.23364402 -0.12310149 -0.2005435 -0.22670646
0002d0 41 16 db 3d 5f c5 fa bd 9e 48 29 be d3 a1 8f be
       0.10697604 -0.12244677 -0.16531608 -0.2805315
0002e0 bb 0a ae be 95 81 27 be a0 52 a0 3d 0d cb 56 3d
       -0.33992562 -0.16358025 0.078282595 0.052439738
0002f0 c1 ed 9a 3e bd b0 92 3e 23 d5 be bd 06 13 c6 bc
       0.30259517 0.28650466 -0.09317996 -0.024178993
000300 13 96 c7 3d d3 43 28 3e c5 62 c7 3e 8d 0a 6a 3e
       0.09745421 0.16432123 0.38942543 0.22855587
000310 93 01 92 3e 29 4c 4a 3e 34 54 f9 bd f1 15 a4 bd
       0.28516826 0.19755615 -0.121742636 -0.080119975
000320 74 50 d3 3d fc 81 0d be 05 10 10 bd 5a 19 3b 3e
       0.103180796 -0.13819116 -0.035171527 0.1827139
000330 55 7b bf 3e 27 d6 f8 bd 76 48 c4 bd 3a 55 bf be
       0.37398782 -0.12150221 -0.09584133 -0.3736971
000340 a1 0e 6b be f6 93 3c 3d 89 47 9f 3e 84 df 1b 3e
       -0.22954799 0.046039544 0.31109264 0.15221983
000350 f9 6d bf be 28 01 87 be eb 08 7f bd a1 dc a5 3d
       -0.3738859 -0.2636807 -0.062264364 0.08098722
000360 22 12 c9 3e 4d 9a 13 be a0 50 fa bd f6 63 3f be
       0.39271647 -0.1441433 -0.12222409 -0.18690476
000370 8c 26 6f 3d 9a 1c 73 3e 95 6e 4c 3e 9e bd 38 be
       0.05838637 0.2374138 0.19964059 -0.18041083
000380 10 4e 80 bd 63 9f 14 be 76 04 a2 bb 40 0c 98 3e
       -0.06264889 -0.14513926 -0.0049443794 0.29696846
000390 7e e1 a2 3c 80 14 fd 3d 3d 5c 55 3c 8f 51 a8 3e
       0.019882914 0.12357426 0.01302248 0.32874724
0003a0 8e 48 2b 3e 2c 8f 03 3e 2a 69 b7 3d d6 7a 65 3e
       0.16726896 0.12847584 0.08955605 0.2241014
0003b0 04 30 7f 3e d8 ca 78 3d 48 e6 fd bd 79 8e 35 be
       0.2492066 0.060740322 -0.12397438 -0.1773013
0003c0 1b bc 6b 3e 39 1e ec bc 10 32 60 be a8 b2 05 be
       0.23020975 -0.028823005 -0.21894097 -0.13056433
0003d0 db 5b 2a be 95 63 5f be 6a c7 64 be 53 b1 50 be
       -0.16636603 -0.21815331 -0.22341695 -0.20380144
0003e0 66 cc b5 bd b7 ee 4c be
       -0.088768765 -0.20012937

conv_block.0.bias f4 [10]
000000 0e 53 9e be a4 1a 18 be c0 a4 6a be d0 b1 12 be
       -0.3092274 -0.14853913 -0.2291441 -0.14325643
000010 3a 5b 48 be 89 e9 31 be 49 c6 14 be a9 87 06 be
       -0.1956605 -0.17374243 -0.14528765 -0.13137688
000020 7b 4e 87 be d7 d3 f6 bd
       -0.26427063 -0.12052124

conv_block.3.weight f4 [20, 10, 5, 5]
000000 2e 20 24 3d 4f ca fc 3c af bf 89 3c 42 c5 41 3d
       0.04006975 0.030858187 0.016815035 0.04730726
000010 c3 6c 02 be 06 15 b9 3d 8c 11 d9 3c 9f bb 4b 3d
       -0.12736802 0.09037213 0.026497625 0.049739476
000020 27 dd a5 bc 9b 36 1c be 28 39 47 3c 80 8a 8c 3d
       -0.020247055 -0.15255205 0.012159623 0.06862354
000030 da c6 e9 bc e5 e1 87 bd 97 36 2d be 20 77 77 3c
       -0.028537203 -0.06634883 -0.16915356 0.015104085
000040 af 3d 8e 3d 0d a8 a0 3d ed a1 f1 3c 86 ba de bd
       0.06945359 0.07844553 0.029496158 -0.1087542
000050 26 71 16 bb 7b f6 f8 bb 38 c5 e1 3c 8b dd 4c bd
       -0.0022955625 -0.007597742 0.027559862 -0.050015967
000060 cd 76 49 be 63 e5 ac 3c 43 22 97 3c 38 98 a5 3c
       -0.19674225 0.021105474 0.018448954 0.020214185
000070 c5 6d 21 3d 9c 1e 17 3e e7 f4 70 3d e5 ed 80 3d
       0.039411325 0.1475777 0.058827307 0.06295375
000080 6b 0b 99 bd 7e 41 aa 3d 1c a4 6b 3d aa 3a 15 3e
       -0.07472881 0.08313273 0.057529554 0.1457316
000090 95 37 44 bc 37 ed d8 bc 28 aa b5 3c 12 ba 3f 3e
       -0.011976142 -0.0264803 0.022175863 0.18723324
0000a0 0f a8 b7 3d 61 86 8a 3d f3 50 b8 3b 14 78 15 3e
       0.089676015 0.06763912 0.0056248843 0.14596587
0000b0 0d 21 a6 3d 88 89 64 3c 86 db 37 3d cb 66 9f 3d
       0.08111773 0.013948806 0.04488709 0.07783278
0000c0 b1 d9 41 3d d0 20 0e 3c d0 39 11 3d 14 35 ba bd
       0.047326747 0.008674815 0.035455525 -0.09092155
0000d0 ac 73 1c bd d7 43 5e bd 00 f4 3a be 3d d2 85 bc
       -0.03819625 -0.054263916 -0.18257141 -0.016335601
0000e0 57 5f c4 bd b3 90 43 bd b0 54 a1 bd f8 30 4a be
       -0.09588497 -0.047745418 -0.07877481 -0.19745243
0000f0 50 65 b0 3d d4 a5 67 3d 56 5b 95 bd 13 71 df bd
       0.08613074 0.05655463 -0.072928116 -0.10910239
000100 36 98 c5 bd 4d fb 64 bc a2 fe ed 3c c2 58 e0 bc
       -0.096481726 -0.01397593 0.029052082 -0.027386073
000110 9a 48 04 3d a6 90 1e 3e 95 49 01 be d8 d7 03 be
       0.0322958 0.15484866 -0.12625726 -0.12875307
000120 ce 83 c6 bc b7 3b 95 3d 98 82 b6 3d 96 7e 52 bc
       -0.024232771 0.0728678 0.089116275 -0.012847563
000130 e9 2d a6 3b 95 78 a1 3d 87 c2 93 3e 97 84 31 3e
       0.005071391 0.07884327 0.2885935 0.17335735
000140 df 84 9e 3c 2b f1 8a 3d fa f2 a8 3d 93 d4 27 3e
       0.019350467 0.067842804 0.08249469 0.16389684
000150 ca 39 75 3e e6 81 00 be 77 7b 90 bd c5 21 38 be
       0.23947826 -0.12549552 -0.07054799 -0.17981632
000160 a1 f7 04 3d 4f 63 a3 3e cc 31 3f be c5 39 96 be
       0.03246272 0.31911704 -0.1867134 -0.2934095
000170 8b 33 a6 be ea 45 58 bd ee ad 59 3e 1f cc 78 3c
       -0.324612 -0.05280105 0.21257755 0.015185385
000180 bf 31 3d be a2 1d b9 bd f3 76 2d bd 17 85 1a 3c
       -0.18476008 -0.09038855 -0.042349767 0.009431145
000190 72 e5 48 bd a5 8b c4 bd 70 4d 93 bc 20 f3 c4 3c
       -0.04904694 -0.095969476 -0.017981261 0.024041712
0001a0 46 2b cf bd 2e 02 93 bb 54 5b cf bd 29 ff 6c be
       -0.10115676 -0.004486344 -0.10124841 -0.23144211
0001b0 a5 50 f9 bd 72 8a 3c 3d eb c8 a0 bd 10 3e 4d be
       -0.12173585 0.04603047 -0.07850822 -0.20043206
0001c0 bb 71 4f bd 66 bf e0 bb e2 bd 23 3e c9 40 a1 3b
       -0.05064557 -0.006858754 0.15990403 0.004921053
0001d0 9d 7c 02 3d 79 d5 1b 3e 08 f7 2d 3e 1f 7a 2b 3d
       0.03185712 0.15218152 0.16988766 0.04186451
0001e0 eb e4 cf bc 7b c4 80 3d b9 77 97 3d 3b 11 f3 3b
       -0.025377711 0.06287476 0.07395882 0.0074178255
0001f0 48 cd 7d bd ff 2d 94 3d c9 e1 19 3d af c4 eb 3d
       -0.06196335 0.072353356 0.03756884 0.11512124
000200 45 f4 2b bd c3 dc 13 be 10 a0 2c bd f5 6f 11 3d
       -0.041981 -0.14439683 -0.042144835 0.03550716
000210 ec 24 eb 3d ee 9d 0f be d0 b7 ca bd df b9 03 3d
       0.11481652 -0.14025089 -0.09898341 0.032159682
000220 2f 2c 25 3d fe 3f cb 3d fa c6 e3 3c 7e d6 20 3d
       0.04032534 0.09924315 0.02780484 0.039267056
000230 35 7e a0 3c b5 e1 2b 3c a4 53 d5 bc 24 34 c3 bd
       0.01959143 0.0104908245 -0.02604086 -0.095314294
000240 a0 80 21 bd 4f 1a 5c bd ab 25 bf bd 75 cd 20 be
       -0.039429307 -0.053736027 -0.093333565 -0.15703376
000250 bf 60 07 be ff 7d c4 bd c5 ce 5b 3d 7c 28 a7 3d
       -0.132205 -0.09594344 0.053663988 0.08162019
000260 ea 66 4c 3d 82 41 33 3e 5e 89 df 3d 3e 3c 50 3d
       0.049902834 0.17505458 0.109148726 0.0508387
000270 31 68 95 3d 52 75 ce 3d 23 87 07 3e 10 c5 ca bd
       0.072952636 0.10080971 0.13235144 -0.09900868
000280 cf a0 2c 3d 02 88 2c 3b c0 b3 07 3e 97 ac a1 3c
       0.042145547 0.0026326184 0.13252163 0.019735618
000290 b1 de 37 be fa f5 e5 3b e1 3b 04 3d 94 31 98 bd
       -0.17956044 0.007017848 0.032283667 -0.07431331
0002a0 a3 8c 0e be 4c 65 88 be 46 5d a9 bc cf ae f8 bd
       -0.13920836 -0.26639783 -0.020674359 -0.12142717
0002b0 a9 ae 44 be 13 a8 73 be ea f7 56 be 2f 00 19 be
       -0.19207253 -0.23794584 -0.20993009 -0.14941476
0002c0 e6 31 1d be 5b 44 c1 bd 0f a4 53 3d ca e4 4c 3e
       -0.15351066 -0.09436866 0.05167013 0.20009151
0002d0 fe 6c c2 3d 5a 90 d5 bc 5c 55 06 3d ec 60 10 bd
       0.09493445 -0.026069809 0.03279625 -0.035248682
0002e0 0d ca 21 be a5 d3 b5 bd 62 aa f4 bd 1a 22 19 be
       -0.15799733 -0.088782586 -0.119465604 -0.14954415
0002f0 22 63 1a be 1c 33 91 3d 26 b8 48 be 09 0f 66 be
       -0.15076879 0.070898265 -0.19601497 -0.22466673
000300 54 02 06 be 7c 9b d1 3d 36 17 19 3e fb 16 76 3e
       -0.13086826 0.102347344 0.1495026 0.24032204
000310 17 de 11 3d eb 71 c0 3d 5d 66 b2 3d 72 14 ee bc
       0.035612192 0.09396728 0.087109305 -0.029062483
000320 cf 9a ad bd 62 23 50 bd 11 99 1f be 93 95 cc 3c
       -0.08476793 -0.050814994 -0.15585734 0.024973666
000330 a5 f5 59 3d 39 11 a4 bd 93 fa e2 bd 0b d1 9f bc
       0.05321278 -0.080110975 -0.110829495 -0.01950886
000340 ba ad 10 3d 86 f1 b0 3d 9e 87 a7 bb fd bb e9 bd
       0.03532193 0.08639817 -0.0051126024 -0.11412809
000350 a3 0c 86 bb f5 51 69 3d 8b 35 0c bc 1f 56 50 3d
       -0.004090862 0.056962926 -0.0085576875 0.05086338
000360 cd 44 e2 3a fb 5b 34 3e 3b 32 33 3e 3a a2 dc bd
       0.0017262936 0.17613213 0.1749963 -0.1077313
000370 c8 95 0c 3e f1 bc 46 3e 97 ae 12 3e 26 34 45 bd
       0.13729012 0.19408013 0.14324413 -0.048145436
000380 c8 89 82 be c4 f6 c1 3c f6 dc 84 3d 9d 46 07 3e
       -0.25495744 0.023677237 0.064874575 0.1321053
000390 b7 51 46 3e d1 38 24 3c 10 a8 4d be 15 43 0e 3e
       0.19367109 0.010023312 -0.20083642 0.13892777
0003a0 a4 d3 31 3e 0e 65 b4 3d 21 13 1f 3d 81 3d 29 3e
       0.1736589 0.08808337 0.038836602 0.16527368
0003b0 17 f8 20 3e 71 58 c8 bc 5c f3 28 3a 9b 82 09 bd
       0.15719639 -0.024456235 0.0006444955 -0.03357182
0003c0 4e 0b 85 3d 57 66 ca 3b 37 e5 57 bd f6 09 1b be
       0.06496297 0.0061767506 -0.05270883 -0.15140519
0003d0 6f a4 2e bd 84 f8 b0 bd f2 55 4a be 7c 4e 38 be
       -0.042637285 -0.086411506 -0.19759348 -0.1799869
0003e0 eb 23 fd bd 53 75 8f bd 59 25 cc bd ee f0 3d bc
       -0.123603664 -0.070048 -0.09968061 -0.011593087
0003f0 34 96 1d bd 13 74 98 3d 0e eb 6a 3c a9 f8 8e bc
       -0.038473323 0.074440144 0.014338268 -0.017452555

conv_block.3.bias f4 [20]
000000 60 53 c5 bc 12 09 c5 3d 2e 5c f3 bc d2 e4 15 3b
       -0.024087608 0.09620871 -0.02970704 0.0022871983
000010 aa 03 00 be 1e fa cc 3d 77 b3 6d 3d f9 c3 2e bd
       -0.12501398 0.100086436 0.05803248 -0.042667363
000020 f3 83 f7 bd c8 f9 b8 bc 23 ca 1c bd e4 cf 24 bd
       -0.12085714 -0.022580042 -0.03827871 -0.040237322
000030 8c 53 29 bd be 88 4f bd 6f c7 5e 3c be 16 0e 3d
       -0.041339442 -0.050667517 0.013597353 0.034689657
000040 31 3b 58 3d 6a 81 29 3d a0 2c 69 bd 3e ce 43 b9
       0.052790824 0.041383184 -0.056927323 -0.0001867348

fc_block.0.weight f4 [50, 320]
000000 ac 1d 30 bd 3e d3 96 bd e4 fb 23 bd 38 af b9 3c
       -0.042997047 -0.0736451 -0.040035143 0.022666559
000010 1d 98 8a 3d 67 13 23 3c 13 3b 52 3c 66 4e f2 bd
       0.067672946 0.009953356 0.012831467 -0.118313596
000020 6c e0 3e 3d 8b be b2 bd a0 4e 75 3d 5c f7 84 3d
       0.046600744 -0.087277494 0.059889436 0.064924926
000030 fd 81 19 be f8 19 eb bd 7f 32 0f 3e 0e c5 54 bc
       -0.14990993 -0.114795625 0.13984106 -0.012986435
000040 9a 73 dd 3b ac d7 b7 3d 61 c6 9f 3c 55 4c 13 3d
       0.0067581655 0.08976683 0.019503774 0.035961468
000050 a6 15 ef bc 98 73 80 3d 92 13 85 bd 69 27 65 3d
       -0.029185127 0.06272048 -0.06497873 0.055945788
000060 41 03 bb bc 7b c8 3d bd 21 2e 6b bd 88 db d4 bd
       -0.0228287 -0.04633377 -0.05741704 -0.10393435
000070 71 99 89 3d 97 46 22 3e 0d 45 2c 3e 45 32 66 bd
       0.0671872 0.1584724 0.16823216 -0.056200285
000080 f6 05 88 3d 04 99 1a 3d d2 49 45 3c cd eb 39 bd
       0.06641762 0.037743583 0.012041526 -0.045390893
000090 55 ac 50 3d 42 31 55 bd c9 54 55 bd 5d 05 23 be
       0.0509456 -0.05204893 -0.05208281 -0.15920015
0000a0 8e 4c 9d bd 42 e9 c9 3d ce d6 c3 bd 99 1f 9b bd
       -0.07680617 0.098589435 -0.09562455 -0.07574386
0000b0 99 1c 22 be 58 6c 8f bd d5 d2 36 be 37 8d 53 be
       -0.15831222 -0.07003087 -0.17853864 -0.20659338
0000c0 29 3a 33 3c 7d 3a d8 3d a9 67 b0 3d b9 ab 1a 3d
       0.010939159 0.10558031 0.086135216 0.037761424
0000d0 60 75 0d bd 7c 05 02 bd be 14 09 3c 37 bc 22 3d
       -0.034535766 -0.03174351 0.008366762 0.039730277
0000e0 0d 86 d9 bc f9 8b 59 bd c8 8d 97 bd d4 4c 10 be
       -0.026553178 -0.053112004 -0.074000895 -0.14091808
0000f0 5c b3 31 3e b0 d0 9f 3d 56 61 48 be c8 31 6a be
       0.17353576 0.07803476 -0.1956838 -0.22870553
000100 1f b3 2b 3d 6a 42 c2 3c 11 10 8a bd 77 17 e1 3d
       0.04191887 0.02371331 -0.06741346 0.10990804
000110 69 69 81 3c 3a 86 37 3d f7 62 15 bd 87 c7 b6 3c
       0.015797334 0.044805743 -0.036471333 0.022311939
000120 8d 8a 8e 3b 01 3f c5 bd bd 11 a4 3c fb a1 21 3d
       0.0043500126 -0.09631158 0.02002799 0.039461117
000130 82 bd 5a 39 f9 98 8d bd fc d0 30 be 35 b6 63 be
       0.00020860697 -0.06913943 -0.17267221 -0.22237475
000140 31 56 d0 3d 34 ac 58 3c 15 41 9e 3c e6 c6 2d 3c
       0.1017269 0.01322465 0.019318143 0.010606503
000150 71 10 89 bd da a8 d3 3d 45 90 4d 3d c8 6f c4 bc
       -0.06692589 0.1033494 0.050186414 -0.023979083
000160 9b 2a a2 3b e3 20 d6 bc fe 5a ef bc 97 7f e4 3d
       0.0049489266 -0.026138728 -0.029218193 0.11157148
000170 f7 e5 76 be e5 2f 39 be 75 79 67 be 83 29 17 bd
       -0.24111162 -0.18084677 -0.22604926 -0.036904823
000180 98 89 83 bb 68 5e 04 bd 31 21 c8 3b 42 78 eb 3d
       -0.004014205 -0.032316595 0.0061074723 0.11497547
000190 02 55 4c 3d 02 29 05 be 78 03 b2 bd 64 4a 55 3d
       0.049885757 -0.13003924 -0.08692068 0.052072898
0001a0 50 14 79 bd b4 cd a0 bc 24 9e e5 3c 7c db d1 3d
       -0.060810387 -0.019629337 0.028029509 0.102469414
0001b0 a0 e1 19 3e bd d7 4f 3d f5 a9 df bc b0 5f 70 bc
       0.15027475 0.050742853 -0.027302722 -0.014671251
0001c0 1a 56 ff 3b 79 ab cf 3b 9d ef a8 3d 50 fd fd 3b
       0.0077922465 0.00633758 0.082488276 0.0077511445
0001d0 fe c3 e8 3d 80 5a 93 bd 65 39 6a 3c 46 c2 ec 3d
       0.113655075 -0.07194996 0.0142959105 0.11560492
0001e0 d2 fc 1d be 4e 2b 76 bd bc 63 12 bd a0 fc 96 bd
       -0.15428475 -0.060099892 -0.035739645 -0.07372403
0001f0 8e e8 3f 3e 6f 75 a2 3d 7d 19 2c bd aa 55 36 be
       0.18741056 0.07932555 -0.042016495 -0.17806116
000200 bb 08 ba 3d 7e 98 c4 3d c9 3d 01 3d 4c 50 06 3d
       0.090836965 0.09599398 0.031553064 0.03279142
000210 ad 60 85 3c 13 2c 6c 3c 12 3a 27 3d 27 a0 07 3e
       0.01628145 0.014414805 0.040826865 0.13244687
000220 2a 22 17 bd 69 36 88 3c cc c4 a3 3d ba f3 bf bd
       -0.036897816 0.016627507 0.079965204 -0.09372659
000230 4c 51 49 be 83 2f 98 be 88 65 8f be 8e c2 8e be
       -0.19659919 -0.2972375 -0.2800715 -0.27882808
000240 56 ea f1 3c 6d 92 a2 3b ef 77 1b 3d eb 8c 78 bd
       0.029530685 0.004961303 0.037956174 -0.060681265
000250 78 fe 9e 3d 47 9b de 3d 5a fb 91 3d a6 cd 50 bd
       0.0776338 0.108694606 0.0712802 -0.05097737
000260 e8 c8 61 3e a4 f3 c8 bd 50 f1 1c bd 0c 37 64 be
       0.22049296 -0.09812096 -0.03831607 -0.22286624
000270 99 d5 17 be 61 7f ae bd d2 4a 1a be e9 ae ca 3d
       -0.14827575 -0.08520389 -0.15067604 0.09896643
000280 73 63 bf 3c 28 31 b8 3c 32 bf 3a bd 5a c0 f5 bc
       0.02336285 0.022484377 -0.045592494 -0.029998947
000290 46 cb 6c 3d d9 a3 3d 3d 41 76 8a 3d 17 c1 05 be
       0.057811044 0.046298835 0.067608364 -0.13061939
0002a0 ec 8f 27 3d b1 94 13 be 46 d2 ad bd 1c 8f a0 be
       0.04090874 -0.1441219 -0.08487372 -0.31359184
0002b0 57 39 fe 3d 78 ad 5d be 6d 86 a8 be 76 ab ee bd
       0.124132805 -0.21648204 -0.3291506 -0.11653797
0002c0 ab 92 74 3e c5 c0 29 3d 9a 90 8d 3d 47 f2 da bc
       0.23884074 0.041443605 0.06912346 -0.026726855
0002d0 4a 0a c3 3d cd 04 a6 3c e2 5d 8a 3d 25 14 32 bc
       0.09523447 0.020265961 0.06756188 -0.010869061
0002e0 f3 dd a2 bd 98 dc e0 bd 6f 2d 1e be bc 1b 0d be
       -0.0795249 -0.10979575 -0.15447019 -0.13780111
0002f0 f6 7a 8d 3d 15 eb 0d be b7 e7 1c be ac 3c 52 be
       0.069082186 -0.13859208 -0.15322767 -0.20530957
000300 0c ad 7b 3c 7b 4a 45 bc 64 34 a3 3d c0 37 16 3d
       0.015361082 -0.012041683 0.07968977 0.03667426
000310 83 d3 ef 3b d9 a3 83 3e be e6 9c 3c 44 32 85 3d
       0.0073189153 0.25710943 0.019152995 0.06503728
000320 0e cd ef bd 3b e8 78 bd 48 6e 16 be 41 05 f3 3c
       -0.11709033 -0.060768347 -0.14690506 0.029665591
000330 72 0e 52 be e7 61 28 be c6 33 7b bd ec f0 c8 bd
       -0.20513323 -0.16443597 -0.061328672 -0.09811577
000340 dc 79 ca 3c a1 f7 c6 3b ec 82 e8 bc 78 0d 3d bd
       0.02471631 0.006072 -0.02838274 -0.046155423
000350 89 28 83 3c 0f 6b a5 3d ff 42 ef bd 98 bb 3b be
       0.01601054 0.080770604 -0.116827 -0.1833328
000360 c5 3d 9b 3d e7 0e 64 bc 43 ce d6 bb f5 8a fb 3d
       0.07580141 -0.013919569 -0.00655535 0.12282363
000370 c2 e1 c6 bc e3 19 ad bd 5a 32 90 bd 8f d2 06 be
       -0.024277572 -0.08452203 -0.07040854 -0.13166259
000380 59 a5 87 3c 14 e0 aa 3c 4a de 2f bd 77 83 64 3d
       0.016558336 0.020858802 -0.0429366 0.055789437
000390 bf cd 24 3d f2 9e 22 3d 12 fe c8 3d 01 de 0e 3e
       0.040235277 0.039702363 0.09814085 0.13951875
0003a0 17 52 a3 bd 27 19 63 3d 6f 53 25 be 1d ee 34 bd
       -0.07974642 0.05544391 -0.16145109 -0.044172395
0003b0 1b a0 b7 be 91 51 37 be 9c bf 53 3d 45 0c 86 3d
       -0.35864338 -0.17902209 0.051696405 0.06545309
0003c0 30 2f 4b 3d d7 1e ce 39 a9 a1 c1 3c a2 af 41 bd
       0.04960555 0.0003931436 0.023636656 -0.047286637
0003d0 dc d4 9b 3d f1 3c 13 3d 73 ed 99 bc 8d d1 0a bd
       0.07608959 0.03594679 -0.018789982 -0.03389125
0003e0 ac 50 14 3e ff 78 38 bc 65 49 db bd 97 e8 be 3d
       0.14483899 -0.0112593165 -0.10707358 0.09321707
0003f0 44 e2 17 be c7 f1 47 be 3f cb 92 be 50 e6 0c bd
       -0.14832407 -0.19525824 -0.2867069 -0.03439933

fc_block.0.bias f4 [50]
000000 7b 04 e2 3d 43 5f 34 3e 6a bb 15 bd 7a 24 5c 3e
       0.11036011 0.17614464 -0.036555685 0.2149829
000010 1b 0d 39 3e d5 0d 1d be 54 08 8c 3e 93 1f 99 3d
       0.18071406 -0.15337308 0.27350104 0.074767254
000020 02 dd 70 3d 68 e0 c1 3e ee 60 36 3e 37 51 59 bd
       0.05880452 0.3786652 0.17810413 -0.053055968
000030 37 0c 1f 3c 99 1f c4 3e c5 8d ce 3e 4b 69 e4 3d
       0.009707502 0.38305357 0.40342537 0.111528955
000040 00 67 0a 3d b5 80 3b 3d da 5a da bd 17 ac 55 3e
       0.033789635 0.04577704 -0.1066186 0.20866428
000050 99 d5 f4 bd 3d da 89 3d dd 33 04 3d 68 56 c7 3c
       -0.11954803 0.06731079 0.032276023 0.024333194
000060 bf 81 c8 3e c3 32 32 3e 37 0e d4 3e a3 ce 06 3c
       0.39161488 0.17402177 0.41417095 0.008227977
000070 27 ac 8e 3e 63 6a e8 bc 70 6e 87 3e 13 84 12 3e
       0.27865717 -0.028371042 0.26451445 0.14308195
000080 6b d0 4c bd 73 82 81 3e e9 b7 d1 3e 37 6b ac 3d
       -0.05000345 0.25294837 0.40960625 0.08418887
000090 d8 e0 67 3d d3 0b d8 bb 5a b1 d8 3e ac d4 92 3e
       0.056610912 -0.0065932064 0.42322809 0.2867788
0000a0 7d c1 22 3d aa 3d 15 3e d9 64 5b be b3 05 ce 3e
       0.039735306 0.14574304 -0.21425189 0.40238723
0000b0 50 ec 4b 3e f1 6b c4 3e 6a 88 c4 3d b5 eb ad 3a
       0.19914365 0.38363603 0.095963314 0.0013269099
0000c0 01 0e bf 3e 3a f5 71 bd
       0.37315372 -0.059071757

fc_block.3.weight f4 [10, 50]
000000 14 94 a7 be ff 84 15 3e 32 f8 ce 3d bd 7c 89 be
       -0.32730162 0.14601515 0.10105933 -0.2685298
000010 9c f9 3f 3e 8f 08 28 be cf 26 5e be 3d c1 9c be
       0.18747562 -0.16409515 -0.21694492 -0.3061618
000020 21 e8 39 be df ea 93 be 34 16 b3 3d 14 37 0b 3e
       -0.18154956 -0.2889013 0.08744469 0.1359523
000030 62 9e 27 3e 7f e7 88 be 8d 81 41 be 49 5d 5c bd
       0.16369012 -0.26739118 -0.18897076 -0.0537999
000040 f0 35 65 be c1 75 06 3e 0f 94 f5 3d 12 57 1a be
       -0.22383857 0.13130857 0.119911306 -0.15072277
000050 82 47 a0 bd c9 ad 3a be cd 6e 82 be e8 d1 18 be
       -0.07826139 -0.18230356 -0.2547516 -0.14923823
000060 1c a1 00 bd a7 f4 cb 3d 34 bf 38 3e dd 2b e4 3d
       -0.031403646 0.09958773 0.18041688 0.11141179
000070 8f f3 00 be 53 91 a3 be 67 3f 44 3e 1e bc 55 be
       -0.1259291 -0.3194681 0.19164811 -0.20872542
000080 c8 1b 92 3d 7a 62 8e be c4 fc b1 be 16 7f 12 bd
       0.07134205 -0.27809507 -0.34763157 -0.03576573
000090 6a 87 9b be ae 74 1b 3c c1 05 3d 3e f9 4c 4a be
       -0.3037675 0.009488268 0.18459226 -0.19755925
0000a0 5a 5f fb 3d bb 8e d3 be e8 73 5e be af 32 7c be
       0.12274046 -0.41319832 -0.21723902 -0.2462871
0000b0 39 90 12 3e b9 76 78 bd 41 73 0e be b2 4a 88 3d
       0.14312829 -0.060660098 -0.13911153 0.06654872
0000c0 78 8c bf be ab d5 9e be 7b eb d6 bd 11 e4 96 3d
       -0.37411857 -0.3102239 -0.10494133 0.07367719
0000d0 11 ce 36 be 3d 9e 3c 3d 04 b2 57 be 47 ae 78 be
       -0.17852046 0.046049345 -0.21064001 -0.24285232
0000e0 70 a6 fe 3d b9 93 52 bd 3c a4 47 be 54 b1 46 3e
       0.12434089 -0.05141041 -0.19496244 0.19403583
0000f0 d7 3d 75 be 66 2a 3e be 0a af 60 be 75 a4 30 3e
       -0.23949371 -0.18570861 -0.21941772 0.17250235
000100 fc ad 43 3e e3 af 88 3d e8 c4 7f be 61 e2 4d bd
       0.19109339 0.06674173 -0.24977458 -0.05026472
000110 65 6c 04 be 17 13 12 3e 47 cb c7 be fe 3c 55 be
       -0.12931974 0.14265095 -0.39022276 -0.20824048
000120 3f eb 71 be 14 c8 cb bd c7 5e 52 3e 76 85 98 be
       -0.23624896 -0.09950271 0.20543967 -0.29789323
000130 c2 51 0f 3e af d6 38 be 5a f1 fd 3d a7 0c 77 bd
       0.13996032 -0.18050645 0.1239955 -0.0603148
000140 fb 1a eb 3d 3d 0d 3c be 35 d5 ba be ba c5 a5 3d
       0.114797555 -0.18364425 -0.3649079 0.08094354
000150 5e 5a 6d 3e fa 47 8e 3d 17 4f 2d be 19 93 47 be
       0.23179004 0.06947322 -0.16924702 -0.19489707
000160 ea d3 33 3e 3c fb 28 3e b7 a6 92 be 3f 31 56 be
       0.17561308 0.16502088 -0.28642818 -0.20917223
000170 49 a6 85 be 99 d1 1b 3e 44 02 92 be 2e a7 b7 3d
       -0.26103428 0.15216674 -0.28517354 0.08967434
000180 6e 01 a5 3d 6d 50 b0 be ab c5 70 3d a5 4f 88 be
       0.08056913 -0.3443636 0.05878226 -0.26623264
000190 d3 df 2c be 3a 57 95 be e4 a6 cc 3d b1 52 cb 3d
       -0.16882257 -0.2916811 0.09992769 0.099278815
0001a0 53 6f d6 bc 88 cd 4a 3d e6 98 d7 bd 5b 9f e4 3d
       -0.02617613 0.049512416 -0.1052721 0.11163207
0001b0 8b df 1a 3e f1 25 2b bd df 47 ab bd 89 d9 f8 3d
       0.15124337 -0.04178423 -0.08363318 0.121508665
0001c0 ab 0c c6 3d 71 8b 30 be ad 44 3d 3e 03 c2 f2 3d
       0.09670385 -0.17240693 0.18483229 0.11853411
0001d0 71 2d 7f bd 20 47 11 3e 4c 71 09 3e ea 1b 21 3e
       -0.062299196 0.14187288 0.13422126 0.15733305
0001e0 82 b4 5b be f2 a4 83 bd e2 71 0b be f8 71 24 be
       -0.21455577 -0.06427945 -0.13617662 -0.160591
0001f0 b1 f4 f5 bd 0c ba 86 be 75 bf 2f 3e 07 b3 49 be
       -0.12009562 -0.26313818 0.17162879 -0.196972
000200 4d df 87 be bd de 10 3e 9f 3b c9 bd fe a2 3b 3d
       -0.26537552 0.14147468 -0.09825825 0.04580974
000210 e8 8b 3d be a8 0b 1d 3e 08 40 39 be 9d b1 5f 3e
       -0.18510401 0.15336478 -0.18090832 0.21845098
000220 37 f2 28 be 37 8e 22 be b5 2f 7e be 31 20 57 be
       -0.16498648 -0.15874563 -0.24822886 -0.21008374
000230 f6 67 0b 3e 5d fa e8 bd 07 27 18 be 65 ed 18 3e
       0.13613877 -0.11375878 -0.14858638 0.14934309
000240 b3 e1 1f be be 02 3e be 08 01 42 be 63 5b 19 3d
       -0.15613441 -0.18555734 -0.18945706 0.03744067
000250 ee dc 5f be 8b a7 6d be 7e 9d ea bd 9c 08 67 be
       -0.21861622 -0.23208444 -0.114558205 -0.22561878
000260 d0 4c a9 3d d9 19 72 3d f5 b5 26 3e 11 3e fd 3d
       0.08266604 0.05910668 0.16280349 0.12365354
000270 fd 3d 15 be 68 20 d0 3d a0 40 b1 3d 57 8b 43 3e
       -0.14574428 0.10162431 0.08654904 0.19096123
000280 a2 7b 20 be 3b b2 85 bd 4f d9 89 bd 6b 87 fd bc
       -0.15672162 -0.065281354 -0.067309014 -0.030948361
000290 60 51 c3 bd 19 a2 f5 3d 99 5c ca bd 01 12 aa bd
       -0.095370054 0.11993808 -0.09880943 -0.08304215
0002a0 51 08 04 3e b9 b9 1f be cb 8f 6c be 2f c1 4d 3e
       0.12893797 -0.15598191 -0.23101728 0.20093225
0002b0 18 52 2f be 50 9e 11 3e 71 23 83 be a2 2d 06 3e
       -0.1712116 0.14220548 -0.25612977 0.13103345
0002c0 81 76 73 bd 6e 67 75 be f8 5b 57 be df b1 10 3e
       -0.059439186 -0.23965237 -0.21031177 0.14130352
0002d0 e0 49 30 be 73 45 8b be 53 0c 6f 3d 74 6c 10 bd
       -0.17215681 -0.27201423 0.058361363 -0.03525968
0002e0 2a c1 52 3e 57 8f a8 bd 49 84 ff bd fa ea 93 be
       0.20581499 -0.08230465 -0.12476403 -0.2889021
0002f0 36 69 1c be 91 7c f5 bd d2 24 2d bd 18 db 17 3d
       -0.1527451 -0.1198665 -0.042271443 0.03707418
000300 0a 65 10 3e cb c4 72 bd 6a 9d b5 bd 00 95 c6 3d
       0.14101043 -0.059269708 -0.08867915 0.09696388
000310 5d 59 3e be 2f bc e4 bd fe 97 59 be c2 75 a8 3d
       -0.18588777 -0.11168706 -0.21249387 0.082255855
000320 8f ea 3a 3e 20 28 dc bd df 58 ac be eb 61 8c 3d
       0.1825354 -0.10749841 -0.33661553 0.06854614
000330 02 96 c4 be ac 23 93 be c1 f7 bf 3d 04 95 46 be
       -0.38395697 -0.28738153 0.09373427 -0.19392782
000340 a0 69 12 be ed 1c 04 bd 65 01 1f be 5b 90 0b 3e
       -0.14298105 -0.03225415 -0.15527876 0.13629286
000350 71 af ea bd 65 33 4f 3e 8f 4a 42 be 9e 5c 79 be
       -0.11459244 0.20234449 -0.18973754 -0.24351737
000360 dd a1 31 3e a3 09 1c 3e 58 f3 0e be 08 f1 e1 3d
       0.17346902 0.15238051 -0.13960016 0.11032301
000370 27 51 e8 3d 4d 7f f1 bd ac e0 25 3e e4 7d 10 be
       0.113436036 -0.11791859 0.16198987 -0.14110523
000380 2e 3f 6b 3e 07 fc c5 be de 15 9c bc dc d5 3c 3d
       0.2297332 -0.38668844 -0.019053396 0.04610239
000390 1f 09 5b be cb 06 6e be c3 fd f5 bd 02 37 ed 3d
       -0.21390198 -0.23244779 -0.12011292 0.115827575
0003a0 61 b8 9f 3d c1 81 98 bd 79 f7 46 be 88 63 f6 3d
       0.07798839 -0.074466236 -0.19430341 0.12030703
0003b0 2d 5b 96 3d e5 d5 d3 bd 8c d5 8c be 7d 9b d4 bd
       0.07341609 -0.103435315 -0.27506673 -0.103812195
0003c0 52 10 62 be 03 91 d0 3c 93 17 3f be 6d 3c 55 bd
       -0.22076538 0.025459772 -0.18661337 -0.05205958
0003d0 69 c0 b2 be 53 eb 6d be 14 aa ae 3d de a5 bc be
       -0.34912422 -0.232343 0.085285336 -0.36845297
0003e0 4e f0 b7 3d e6 12 bf 3d 00 48 eb bd c5 27 98 bd
       0.08981381 0.093297765 -0.11488342 -0.074294604
0003f0 40 91 35 be 56 d1 39 be 11 fd 16 3e 87 82 d2 3d
       -0.1773119 -0.18146262 0.14744975 0.10278802

fc_block.3.bias f4 [10]
000000 a0 d1 b9 3e 3e b2 2c 3f 7b 57 be bd 98 82 c2 bd
       0.36292744 0.67459476 -0.09294029 -0.09497565
000010 6a fb 03 3e 1e e0 6f be 93 62 2b be e4 a0 52 be
       0.12888876 -0.23425338 -0.16736822 -0.20569187
000020 c8 f8 ff b8 bc 72 a1 be
       -0.00012205687 -0.31532848
