Models/LinearModel_weight.pth (torch, 440310 bytes, 6 tensors)

FC1.weight f4 [128, 784]
0.020901725 0.0053740614 0.025710301 0.021782713 -0.0016305926 -0.0040135244 -0.0010421914 0.007478579
0.0062018884 0.016958842 0.0028152275 0.0029649911 -0.0018271933 -0.017334241 0.015380055 -0.022688324
0.013397762 0.01767349 0.020993851 -0.011456033 0.015162631 0.03300121 -0.020707145 0.01095821
-0.018382315 0.024022259 0.004915735 -0.009493916 -0.024311122 0.024217013 0.024132872 0.036492914
0.014189741 0.03322295 0.032752436 0.02028028 0.0026851937 0.002569534 0.02327449 -0.019135177
0.031077854 0.011520466 0.032821994 -0.0020931154 0.009062658 -0.011341271 -0.005354189 0.012367129
-0.007229223 0.0050930316 -0.01906972 -0.0023335803 0.000646211 0.005352481 0.011818931 0.0047967653
0.035275303 0.012071974 0.0032963757 0.037017114 0.016357774 0.006522074 0.014850282 0.030881338
0.027647369 -0.006418026 0.006719844 -0.019702984 0.024557782 -0.0032522958 -0.025367064 0.0036026349
-0.015103579 -0.0018486074 0.03268696 0.010747323 -0.009784841 0.0013296802 0.02192171 -0.010129423
0.031884823 -0.02037718 0.0034814149 -0.0008789305 -0.018137785 0.022773506 0.03633407 -0.02134516
0.012258335 -0.013363315 0.0008967412 0.0033582898 0.007932891 -0.028587362 0.009550015 0.024431212
0.027081415 0.027889729 0.01455103 0.036269184 0.038765363 0.022307228 0.0026936866 -0.025309388
-0.015089562 -0.008038175 -0.012095326 0.019082917 -0.026015919 -0.011387056 0.014341184 0.0136446245
0.028059883 -0.013509785 0.0368341 0.021755537 -0.01056818 -0.015722785 -0.025033722 0.0014818987
-0.0054408903 -0.006114975 0.022425203 -0.013537047 -0.012190812 -0.015002454 -0.0004046659 0.017762907
0.012476165 -0.0022884335 0.02496892 0.017983029 0.001686378 0.023648037 -0.020533996 0.032403585
-0.016829044 0.02192438 -0.021440579 -0.007233735 0.013645383 0.03595157 -0.0024241048 0.034238897
-0.017374447 -0.019003786 0.026315868 0.026135083 0.0056807855 -0.017233571 0.011115101 0.028495835
-0.012852875 -0.02292297 0.006682615 0.034866188 0.024730168 -0.0083577195 -0.006457877 0.01466237
-0.01740695 0.033470966 0.03446662 0.02983398 0.036932003 0.01715265 -0.019729352 0.0024725047
0.01941188 -0.002202037 -0.021321405 0.02430204 -0.023601184 0.0008657506 0.0094196955 -0.017022328
-0.016675137 -0.017312804 -0.019060036 0.018523019 -0.013995982 -0.0016126356 -0.021370843 0.020046236
-0.007695907 0.023570983 -0.0038137792 -0.030571016 0.0024514913 0.009469586 0.018538035 0.019094724
0.0044722706 0.026890533 0.01762695 0.026505537 0.032978468 0.025645481 0.011793052 0.033087086
-0.021772288 -0.016153226 -0.00018919063 0.0013068237 0.011887634 0.007950904 0.007188999 0.021339517
0.026001569 -0.026917689 0.019477688 -0.022914119 0.0169781 0.003131347 -0.017657269 0.023639586
0.017629705 0.004969837 -0.008543115 -0.021334939 0.028354451 -0.024087295 -0.0015738325 0.017404903
0.025339758 0.025343293 0.020964134 0.0022546072 0.0007024211 -0.022738466 0.02769032 0.0045880605
0.033510175 0.025879333 0.03631155 0.0158085 -0.0198659 0.0006612984 0.006888053 0.01826698
-0.005315329 0.01218091 -0.0010861034 0.00370765 -0.019786905 0.03770277 -0.014355987 -0.025698122
0.031608023 0.01643458 0.03205764 0.01604994 0.015569042 0.006505802 0.016199702 0.0133548705
00000000: 183a ab3c e518 b03b 699e d23c a971 b23c
00000010: 9cb9 d5ba e283 83bb 249a 88ba de0e f53b
00000020: 3639 cb3b 45ed 8a3c ae7f 383b 4c50 423b
00000030: 6f7e efba 8a00 8ebc a0fc 7b3c dddc b9bc
00000040: 4982 5b3c ffc7 903c 4cfb ab3c 16b2 3bbc
00000050: af6c 783c 472c 073d 08a2 a9bc 108a 333c
00000060: 8296 96bc 54ca c43c 2d14 a13b 5f8c 1bbc
00000070: 1e28 c7bc c262 c63c 4db2 c53c 9879 153d
00000080: 167c 683c ca14 083d 6b27 063d d422 a63c
00000090: 13fa 2f3b a065 283b 25aa be3c 60c1 9cbc
000000a0: fc96 fe3c 56c0 3c3c 5b70 063d a62c 09bb
000000b0: 8b7b 143c bdd0 39bc 3172 afbb 809f 4a3c
000000c0: 1ee3 ecbb 72e3 a63b 1a38 9cbc fbee 18bb
000000d0: 7c66 293a dd63 af3b 31a4 413c 2f2e 9d3b
000000e0: d67c 103d 87c9 453c 0208 583b 429f 173d
000000f0: bd00 863c 1fb7 d53b 994e 733c dcfa fc3c
00000100: bc7c e23c 4e4e d2bb 2332 dc3b 2768 a1bc
00000110: 672d c93c 7824 55bb 97ce cfbc 2f1a 6c3b
00000120: 0075 77bc f94c f2ba c3e2 053d 8a15 303c
00000130: 9950 20bc aa48 ae3a 2895 b33c e1f5 25bc
00000140: a999 023d 0bee a6bc 7328 643b 0768 66ba
00000150: b195 94bc 818f ba3c 09d3 143d 0cdc aebc
00000160: 2fd7 483c cef1 5abc 4913 6b3a c116 5c3b
00000170: f5f8 013c 0b30 eabc ab77 1c3c f723 c83c
00000180: d8d9 dd3c 0079 e43c 7167 6e3c ff8e 143d
00000190: 6ec8 1e3d a6bd b63c 9088 303b a255 cfbc
000001a0: 363a 77bc 8db2 03bc 792b 46bc c753 9c3c
000001b0: 561f d5bc c690 3abc 49f7 6a3c b48d 5f3c
000001c0: d7dd e53c 2558 5dbc 5adf 163d ab38 b23c
000001d0: 2926 2dbc 12cd 80bc 8513 cdbc 453c c23a
000001e0: 7f49 b2bb 2160 c8bb 0fb5 b73c 7eca 5dbc
000001f0: f9bb 47bc dacc 75bc 5629 d4b9 8483 913c
00000200: d468 4c3c 8bf9 15bb 9f8b cc3c 2551 933c
00000210: 7509 dd3a 87b9 c13c e936 a8bc 9fb9 043d
00000220: 10dd 89bc c29a b33c 27a4 afbc f808 edbb
00000230: e290 5f3c f441 133d bbdd 1ebb 163e 0c3d
00000240: db54 8ebc d4ad 9bbc 6094 d73c 3e19 d63c
00000250: e225 ba3b 6b2d 8dbc 1d1c 363c 1970 e93c
00000260: dd94 52bc f4c8 bbbc d6f9 da3b d9cf 0e3d
00000270: ec96 ca3c d1ee 08bc 999c d3bb 703a 703c
00000280: 0599 8ebc da18 093d df2c 0d3d 6466 f43c
00000290: 0346 173d b783 8c3c 739f a1bc bf09 223b
000002a0: aa05 9f3c 0d50 10bb 3aaa aebc 1215 c73c
000002b0: 4557 c1bc 8af3 623a 1155 1a3c 6972 8bbc
000002c0: 4c9a 88bc 95d3 8dbc cb23 9cbc 96bd 973c
000002d0: 674f 65bc 125f d3ba e811 afbc 0138 a43c
000002e0: f22d fcbb ef17 c13c 99f0 79bb 1170 fabc
000002f0: 33a9 203b 5326 1b3c 14dd 973c 8a6c 9c3c
00000300: 208c 923b 8949 dc3c 6566 903c 2422 d93c
00000310: 6e14 073d 7916 d23c a537 413c 5386 073d
00000320: cc5b b2bc c553 84bc 7961 46b9 ba49 ab3a
00000330: 5ac4 423c 8244 023c b291 eb3b 36d0 ae3c
00000340: 3e01 d53c 7c82 dcbc ac8f 9f3c 64b6 bbbc
00000350: a815 8b3c 4937 4d3b faa5 90bc cea7 c13c
00000360: 2c6c 903c 04da a23b 6cf8 0bbc 9cc6 aebc
00000370: 9847 e83c b852 c5bc 0e49 ceba ba94 8e3c
00000380: 5395 cf3c bd9c cf3c fabc ab3c 08c2 133b
00000390: af22 383a 0546 babc cfd6 e23c 7157 963b
000003a0: f741 093d e500 d43c 6bbb 143d d480 813c
000003b0: d0bd a2bc fc5a 2d3a 2db5 e13b a2a4 953c
000003c0: 362c aebb 7192 473c 955b 8eba 0bfc 723b
000003d0: 2618 a2bc 386e 1a3d 6035 6bbc de84 d2bc
000003e0: 6a77 013d d0a1 863c df4e 033d 2a7b 833c
000003f0: 4c15 7f3c 9f2e d53b 3db5 843c 63ce 5a3c

FC1.bias f4 [128]
-0.014815252 0.0014762186 -0.0061013578 -0.020864217 -0.035186335 0.0005402311 0.0067027058 0.0010838954
-0.017263578 -0.035301514 -0.0038867472 -0.013490642 0.028089365 0.010947442 -0.019840645 0.017190343
0.021095568 0.011228655 -0.039932918 -0.014403785 -0.012074662 0.00964369 -0.032422405 0.026272971
0.023591004 0.0097214095 -0.02637522 -0.028251806 0.0043111243 -0.01623927 -0.03808542 -0.013832987
0.016979046 -0.0057643345 -0.005560723 0.011493494 0.011711419 0.011526661 -0.04416849 0.025122566
0.012497077 0.004232258 0.016223714 0.023814876 -0.036151536 -0.014054801 0.019570313 0.010663714
0.0073176417 0.02691867 0.039377015 0.006536882 0.012942848 -0.0023406835 -0.016620561 -0.030684192
-0.031642746 -0.014125127 -0.025509946 -0.011582944 0.010507806 -0.025022663 0.0049462784 0.010329288
-0.03531599 -0.0074594105 -0.04693789 -0.024360482 -0.025496524 0.0044873515 0.0067539285 -0.018370846
0.013170065 0.0034191385 0.00026998296 0.011635628 -0.017133009 0.025258712 0.023216508 0.017724352
0.00980737 0.04862145 -0.0022745575 0.041991033 -0.0022978173 0.0065227593 -0.0011722256 0.015260411
0.0059628314 -0.03572023 -0.047732282 -0.004012952 -0.026453478 -0.02437881 -0.008802642 0.039753698
-0.017358663 -0.0043893475 -0.006661488 0.017611425 -0.017362913 -0.011657313 0.006556339 -0.010701518
0.02675562 -0.024922159 -0.043894853 0.0178552 -0.0034821643 -0.033260655 -0.012124206 0.01764251
-0.030523553 -0.001227126 0.012712593 0.0025212576 0.028071746 0.019165585 0.022457363 0.007232848
-0.030584846 -0.010292508 -0.034062542 0.028861878 -0.018659454 0.025601419 -0.0030396977 -0.01524816
00000000: acbb 72bc ad7d c13a e6ed c7bb 6feb aabc
00000010: 8c1f 10bd 4c9e 0d3a 5fa2 db3b 7f11 8e3a
00000020: 596c 8dbc 5298 10bd ccb8 7ebb db07 5dbc
00000030: ab1b e63c e65c 333c d988 a2bc c3d2 8c3c
00000040: 9dd0 ac3c 65f8 373c b390 23bd dafd 6bbc
00000050: ced4 45bc 9100 1e3c 5bcd 04bd 6a3a d73c
00000060: ec41 c13c 8c46 1f3c d810 d8bc 5570 e7bc
00000070: 5544 8d3b 3808 85bc 75ff 1bbd c1a3 62bc
00000080: a417 8b3c bee2 bcbb ba36 b6bb 354f 3c3c
00000090: 40e1 3f3c 52da 3c3c 05ea 34bd d7cd cd3c
000000a0: 8ac0 4c3c c1ae 8a3b 98e7 843c 6a17 c33c
000000b0: a213 14bd 1c46 66bc ec51 a03c dcb6 2e3c
000000c0: d4c8 ef3b 8b84 dc3c cb49 213d 5733 d63b
000000d0: 3d0e 543c 2766 19bb d827 88bc 6a5d fbbc
000000e0: d39b 01bd 146d 67bc 3cfa d0bc 63c6 3dbc
000000f0: ef28 2c3c 54fc ccbc 6414 a23b 2d3c 293c
00000100: 80a7 10bd 126e f4bb f241 40bd a28f c7bc
00000110: 16de d0bc a20a 933b 0f50 dd3b 757e 96bc
00000120: 42c7 573c a013 603b 808c 8d39 5ca3 3e3c
00000130: 865a 8cbc 5ceb ce3c 8c30 be3c a932 913c
00000140: 17af 203c 4927 473d be10 15bb cafe 2b3d
00000150: fa96 16bb dfbc d53b 5da5 99ba ce06 7a3c
00000160: db63 c33b 604f 12bd ed82 43bd 157f 83bb
00000170: f7b4 d8bc 12b6 c7bc f538 10bc c6d4 223d
00000180: c133 8ebc 84d4 8fbb 9d48 dabb d645 903c
00000190: ab3c 8ebc 51fe 3ebc 8fd6 d63b 6b55 2fbc
000001a0: 9a2e db3c 8e29 ccbc 17cb 33bd 1245 923c
000001b0: 0635 64bb 533c 08bd 9ba4 46bc 0687 903c
000001c0: 880c fabc 84d7 a0ba 7b48 503c af3b 253b
000001d0: b8f6 e53c 2501 9d3c 81f8 b73c 8701 ed3b
000001e0: 128d fabc e8a1 28bc 2a85 0bbd bf6f ec3c
000001f0: b6db 98bc 11ba d13c aa35 47bb 6bd3 79bc

FC2.weight f4 [64, 128]
-0.0030875192 -0.05662951 -0.046998773 -0.044960193 -0.029057585 -0.050761882 -0.0033427062 0.024704164
0.020655213 0.03572966 -0.077475786 -0.025416557 -0.08057642 0.0032461672 -0.051528636 0.005287418
-0.065432824 -0.00836656 -0.042337645 0.04103889 0.07124575 -0.012050452 0.011346654 -0.060692564
-0.031246498 0.059122846 0.046712782 0.023074936 0.03925413 -0.0780344 0.026666557 -0.076961674
0.07255827 0.027774466 0.0567805 -0.008559881 -0.08914593 0.035187032 -0.07883057 -0.033195827
0.041161887 -0.010759361 -0.016716003 0.009287904 0.028370505 -0.068567924 0.012731026 -0.099886276
-0.09320355 0.054244507 0.01411324 -0.03104797 0.029283373 -0.0551982 -0.09554347 0.036447432
-0.09436316 0.019777963 -0.027744006 0.008660698 -0.026516492 -0.029755656 -0.06629082 0.018225951
0.017031861 -0.018377133 0.009302287 0.02687385 0.0042710155 0.017461255 -0.005664386 0.012551018
0.029747881 0.06213283 -0.005823725 0.049227543 0.06814097 -0.06650351 -0.018173108 -0.10247886
-0.04510013 0.02034061 -0.059568074 0.011380115 -0.0890704 -0.049580112 0.023996456 0.018229423
-0.00010039612 0.025050579 -0.03687089 0.01356095 0.07554782 -0.047225293 0.036903694 -0.0118386755
0.031840973 0.05913537 -0.085967556 0.030067317 -0.096122004 -0.07005554 0.010962 -0.05982483
-0.04524777 0.08075399 0.010010163 -0.01580481 0.07149527 -0.016121222 -0.026424054 -0.01442555
-0.0021875692 -0.09535126 -0.050820306 -0.042136457 -0.059488114 -0.07590966 -0.034824397 0.050286487
-0.009277552 -0.004846964 -0.10371183 -0.104447335 -0.002827975 0.053943347 0.02099567 -0.027977252
0.0048671267 -0.3318892 -0.19736224 0.029568965 0.037425656 -0.12332402 -0.04695856 0.12658589
-0.036075264 0.007229994 0.04921342 -0.038228143 0.09572537 0.09844435 -0.02820899 0.048748866
-0.13083427 -0.05576256 0.27074778 -0.025039265 0.0008139147 -0.31642213 -0.07666148 -0.008248115
0.025611348 -0.06344149 0.013343686 0.05356807 -0.08645936 0.044828963 0.24652246 -0.006923449
-0.021154607 0.045288533 -0.05542452 -0.018876467 0.020597832 0.009753592 -0.115920626 0.024223812
0.101375006 0.06775031 0.027744438 -0.036168948 -0.036112744 -0.06466185 0.031803396 -0.24875651
0.100791745 0.046268735 0.04661474 -0.14465235 0.02043325 -0.21896048 -0.19985613 -0.02553424
-0.259827 -0.09486701 -0.18043728 -0.17762738 0.188133 0.03305857 0.0056348788 0.06391413
-0.043737784 0.016769467 -0.1330138 0.021261433 -0.057740238 0.019849785 0.059117164 0.13604331
0.06250607 0.123591416 0.01877884 0.023528898 -0.07162187 0.042575877 0.15446168 0.0724329
-0.14526919 0.14281909 0.13459587 0.117010154 -0.24818526 0.029633963 -0.007310759 -0.0245859
-0.24860537 -0.06418095 -0.32128534 -0.055790577 0.003065443 0.1253038 -0.030316995 -0.0014885231
0.13610996 0.019164393 -0.023044614 0.072076656 -0.010434842 0.0021698943 -0.061156835 0.022770105
-0.04146415 -0.033318117 0.0051239594 0.029769957 -0.3714844 -0.07110293 0.020340435 -0.08307579
-0.041738253 -0.07065681 -0.010968665 -0.2122566 0.11494584 -0.07015733 0.06516229 -0.06172453
0.23077112 0.053307347 -0.1888783 0.1809436 -0.16594522 -0.033559475 -0.086432494 -0.116252
00000000: fa57 4abb 58f4 67bd c981 40bd 2e28 38bd
00000010: 2c0a eebc b1eb 4fbd 4e11 5bbb 6360 ca3c
00000020: 1f35 a93c 4459 123d a0ab 9ebd 6236 d0bc
00000030: 4005 a5bd a6bd 543b b10f 53bd 1442 ad3b
00000040: a501 86bd e513 09bc 3d6a 2dbd 6518 283d
00000050: 4be9 913d 426f 45bc 51e7 393c c498 78bd
00000060: a8f8 ffbc cc2a 723d e755 3f3d a607 bd3c
00000070: f0c8 203d 80d0 9fbd d373 da3c 159e 9dbd
00000080: 6e99 943d 4787 e33c ab92 683d be3e 0cbc
00000090: 2492 b6bd 4720 103d ec71 a1bd 59f8 07bd
000000a0: 5e99 283d 0848 30bc 00f0 88bc 4b2c 183c
000000b0: 4369 e83c 576d 8cbd cb95 503c 2d91 ccbd
000000c0: 81e1 bebd 7d2f 5e3d 383b 673c 5058 febc
000000d0: afe3 ef3c 8217 62bd 4bac c3bd e749 153d
000000e0: 7941 c1bd 6505 a23c 6647 e3bc 9ae5 0d3c
000000f0: 1d39 d9bc 22c2 f3bc 7bc3 87bd 974e 953c
00000100: 6786 8b3c a48b 96bc 9f68 183c 8c26 dc3c
00000110: e0f3 8b3b e80a 8f3c 509c b9bb c9a2 4d3c
00000120: d4b1 f33c ff7e 7e3d f2d4 bebb d2a2 493d
00000130: 7e8d 8b3d fe32 88bd c5df 94bc 70e0 d1bd
00000140: eaba 38bd 5aa1 a63c a7fd 73bd a973 3a3c
00000150: 8b6a b6bd 8414 4bbd 3794 c43c df55 953c
00000160: c28b d2b8 df36 cd3c ee05 17bd bf2e 5e3c
00000170: d1b8 9a3d 4f6f 41bd 5428 173d 01f7 41bc
00000180: ae6b 023d ee37 723d c20f b0bd bc4f f63c
00000190: 9ddb c4bd 4779 8fbd f699 333c e20a 75bd
000001a0: ba55 39bd 5962 a53d ab01 243c 1779 81bc
000001b0: 1d6c 923d a710 84bc 4277 d8bc 2459 6cbc
000001c0: 525d 0fbb 8547 c3bd f428 50bd 4797 2cbd
000001d0: cfa9 73bd 8676 9bbd 07a4 0ebd 34f9 4d3d
000001e0: e000 18bc 48d3 9ebb de66 d4bd 7ce8 d5bd
000001f0: 8c55 39bb b3f3 5c3d 1dff ab3c 8d30 e5bc
00000200: 6b7c 9f3b 62ed a9be 5419 4abe 9d3a f23c
00000210: a54b 193d 4e91 fcbd 9e57 40bd bb9f 013e
00000220: a8c3 13bd 96e9 ec3b 0394 493d 1d95 1cbd
00000230: aa0b c43d 319d c93d 8a16 e7bc e4ac 473d
00000240: 6bf9 05be 4867 64bd 749f 8a3e 251f cdbc
00000250: e45c 553a 1502 a2be b200 9dbd 1a23 07bc
00000260: e4ce d13c 9ded 81bd 7a9f 5a3c 316a 5b3d
00000270: 9b11 b1bd 939e 373d 6270 7c3e 1ade e2bb
00000280: 6d4c adbc 7880 393d d204 63bd d2a2 9abc
00000290: c9bc a83c 88cd 1f3c cb67 edbd 0471 c63c
000002a0: b39d cf3d adc0 8a3d 4e48 e33c e425 14bd
000002b0: f5ea 13bd 6f6d 84bd 4744 023d 07ba 7ebe
000002c0: e76b ce3d 4984 3d3d 19ef 3e3d bf1f 14be
000002d0: a263 a73c 2d37 60be 16a7 4cbe 2f2d d1bc
000002e0: 0b08 85be a349 c2bd 8dc4 38be f4e3 35be
000002f0: f0a5 403e 6c68 073d caa4 b83b 69e5 823d
00000300: 6426 33bd 1f60 893c c534 08be 752c ae3c
00000310: 0781 6cbd 049c a23c d724 723d f04e 0b3e
00000320: 2f03 803d 7f1d fd3d 15d6 993c adbf c03c
00000330: 7dae 92bd 0b64 2e3d 342b 1e3e b357 943d
00000340: 72c1 14be 2b3f 123e 80d3 093e 05a3 ef3d
00000350: 4724 7ebe edc2 f23c 178f efbb 5f68 c9bc
00000360: 6892 7ebe 4d71 83bd 837f a4be a984 64bd
00000370: 99e5 483b a44f 003e 595b f8bc 8c1a c3ba
00000380: 6960 0b3e a5fe 9c3c 0fc8 bcbc ed9c 933d
00000390: e6f6 2abc c934 0e3b 977f 7abd 5f88 ba3c
000003a0: 50d6 29bd 9478 08bd e3e6 a73b 20e0 f33c
000003b0: 3433 bebe 6a9e 91bd fca0 a63c a423 aabd
000003c0: bbf5 2abd 85b4 90bd eab5 33bc cb59 59be
000003d0: b968 eb3d a5ae 8fbd cf73 853d dcd2 7cbd
000003e0: 444f 6c3e ce58 5a3d 5069 41be 4749 393e
000003f0: 8bed 29be a975 09bd 8503 b1bd 8715 eebd

FC2.bias f4 [64]
-0.089173056 -0.05741627 0.2493604 0.016127525 -0.009083252 0.1093276 0.013564872 -0.071342535
-0.026929494 -0.05019193 -0.07742511 0.043410353 -0.0834008 -0.0877496 -0.14269426 -0.011087854
-0.113387175 -0.10312501 -0.057859417 0.008344258 -0.042588953 0.16314116 0.07408122 -0.059697557
-0.13391076 -0.057536677 0.14114252 0.03776999 -0.18503197 0.040661134 0.014581075 0.06471698
-0.042545784 0.03948211 -0.06637066 0.018929603 -0.09861571 -0.056287628 0.041110393 0.11994657
0.028606916 -0.117088825 -0.045234647 -0.033660237 -0.051595595 0.10276868 0.057306193 0.057166632
0.044855863 0.04344254 0.06334352 -0.07388102 -0.08989847 -0.0016753777 0.112899125 0.09362789
-0.12045231 -0.10510098 0.054592185 0.14759399 -0.06343244 -0.0695587 0.056801602 -0.029219132
00000000: 5da0 b6bd 532d 6bbd 5558 7f3e df1d 843c
00000010: ecd1 14bc 26e7 df3d 323f 5e3c 091c 92bd
00000020: 3e9b dcbc 0e96 4dbd 0e91 9ebd 0ecf 313d
00000030: 0ace aabd 10b6 b3bd 721e 12be d5a9 35bc
00000040: 8937 e8bd 3533 d3bd fffd 6cbd 5bb6 083c
00000050: c171 2ebd 7a0e 273e e5b7 973d 6d85 74bd
00000060: e71f 09be 94ab 6bbd aa87 103e b4b4 1a3d
00000070: 0579 3dbe 4a8c 263d 76e5 6e3c 568a 843d
00000080: 7d44 2ebd feb7 213d 57ed 87bd 4112 9b3c
00000090: 09f7 c9bd db8d 66bd 5f63 283d 8ca6 f53d
000000a0: 0d59 ea3c 44cc efbd f747 39bd 51df 09bd
000000b0: e755 53bd 6378 d23d e6b9 6a3d 8f27 6a3d
000000c0: c8ba 373d cef0 313d 3fba 813d ef4e 97bd
000000d0: b01c b8bd 5998 dbba a837 e73d fbbf bf3d
000000e0: b3af f6bd 2f3f d7bd 0e9c 5f3d e122 173e
000000f0: dee8 81bd cb74 8ebd cca8 683d f65c efbc

FC3.weight f4 [10, 64]
0.024148231 0.1109639 -0.078309804 -0.0721286 0.118218005 -0.048997696 0.02857269 0.050246254
0.10026039 -0.08951697 -0.014884748 0.033352 0.17449862 0.09401826 0.08131024 0.114885814
-0.3248759 -0.024217788 -0.04892428 0.15212613 -0.07143645 0.11766789 -0.16433638 0.14401287
-0.115858234 0.29461038 0.10498365 -0.30294186 -0.3212371 0.16869344 0.09477091 0.098890305
0.28055948 -0.04132165 -0.1980695 -0.21344209 -0.26186076 0.14394659 -0.060116265 0.2575167
-0.040908612 0.045538474 -0.11145941 -0.11477222 -0.1365084 -0.30029982 -0.06459545 -0.029309541
-0.23784871 -0.1432913 0.16599791 0.05047352 0.06255678 -0.18388355 0.05089013 -0.13111918
-0.10503931 0.003151655 -0.07245995 -0.22506222 -0.042655975 -0.08159518 0.07495938 0.122619204
0.06996557 -0.08589214 -0.23165548 0.09529516 -0.044878233 -0.16095945 -0.037986834 0.061629325
-0.100511536 -0.02635824 -0.1793621 -0.1979053 -0.23578538 -0.08316411 -0.22533834 0.17548607
-0.009641863 -0.073158 -0.33994126 0.027212787 -0.15456082 -0.42653188 0.23699503 0.03280753
0.3244587 -0.016741036 -0.25635794 0.11177342 0.27238336 0.12724674 0.1283721 -0.2297199
0.021299418 0.058363996 0.057582743 0.09243172 0.07248391 0.069017015 0.078757785 0.003654452
-0.17516933 0.11025594 -0.10989702 0.022383045 -0.16795637 -0.06436805 -0.19612913 -0.2302773
0.13444619 0.0518615 0.20881426 0.018874366 -0.002247164 0.022289237 -0.10841755 0.077882424
0.08925302 0.13101979 0.12106564 -0.13679194 0.1570638 -0.038253605 -0.33582276 0.1296633
-0.055518772 -0.20415278 -0.17677231 -0.24478509 -0.20532326 -0.069881305 -0.05675987 -0.064853504
0.081503525 0.052505154 0.038154714 0.071413726 0.03616402 -0.0033836088 0.10735967 -0.19983053
0.27481553 0.021315956 0.30549076 -0.22073488 -0.1962481 0.06043883 0.12924314 0.1822904
-0.17786457 -0.067942336 -0.065757915 0.0690541 0.08296581 -0.09825205 -0.08478943 -0.07565586
-0.008692175 0.29802692 0.20019782 0.01963936 0.16705802 0.21793933 0.13949355 0.094189696
-0.3915589 -0.11364223 -0.1363224 0.035622608 0.2297928 0.035119124 0.16614641 0.09475141
-0.32894745 -0.05885461 0.22653309 -0.0497553 -0.09033068 -0.0070734564 0.10667955 0.15204825
0.19858725 -0.27471164 -0.15557444 -0.07354429 0.06385 -0.046079542 0.005242822 -0.07944316
-0.027023073 0.022037195 -0.21454458 0.08704234 -0.19520837 0.09893657 -0.013053289 -0.015179093
-0.26072624 0.0037050121 -0.21108462 -0.09539958 -0.16913894 0.15562283 -0.15961221 -0.31580693
0.18837717 0.22336718 -0.12685394 0.1552624 0.21504812 0.16844086 0.102841124 -0.040765803
-0.34047458 0.10083468 0.1409085 0.069451705 0.11406112 -0.16299471 0.15982112 -0.013463847
0.00023274307 -0.04946083 0.076210395 0.18376474 -0.03344304 -0.03366045 0.098174684 -0.13894686
0.120721914 -0.17169933 0.03541717 0.05003179 0.1527156 -0.019415239 0.12733984 -0.17003736
0.13269784 0.053933583 -0.18101434 0.041635457 0.035583116 -0.19103476 -0.08530186 -0.26360086
-0.0847716 -0.0744569 -0.15562014 0.0004039691 0.10452509 -0.03518104 0.089139454 -0.06720844
00000000: 83d2 c53c 0b41 e33d e460 a0bd 29b8 93bd
00000010: 481c f23d cfb1 48bd 4611 ea3c 04cf 4d3d
00000020: 5255 cd3d ac54 b7bd 28df 73bc 1b9c 083d
00000030: c4af 323e a58c c03d fc85 a63d 4149 eb3d
00000040: 2256 a6be 6264 c6bc d364 48bd f4c6 1b3e
00000050: 464d 92bd ddfb f03d cc47 28be 1c78 133e
00000060: 1547 edbd 2cd7 963e ab01 d73d 321b 9bbe
00000070: 3079 a4be f9bd 2c3e 4017 c23d 0087 ca3d
00000080: 7ea5 8f3e e440 29bd bbd2 4abe 9090 5abe
00000090: 9d12 86be bc66 133e 793c 76bd 3bd9 833e
000000a0: ca8f 27bd 8d86 3a3d d544 e4bd b30d ebbd
000000b0: dcc8 0bbe e6c0 99be 9f4a 84bd 901a f0bc
000000c0: 9d8e 73be f4ba 12be 5bfb 293e 52bd 4e3d
000000d0: c51d 803d f84b 3cbe 2b72 503d 1b44 06be
000000e0: da1e d7bd ff8b 4e3b e265 94bd b676 66be
000000f0: 08b8 2ebd 601b a7bd 4e84 993d c71f fb3d
00000100: 1c4a 8f3d 38e8 afbd 1837 6dbe 1c2a c33d
00000110: 3dd2 37bd 8ed2 24be 1598 1bbd 086f 7c3d
00000120: fed8 cdbd 3ced d7bc b3aa 37be b0a7 4abe
00000130: b971 71be f251 aabd 18bf 66be 9fb2 333e
00000140: e8f8 1dbc ddd3 95bd c80c aebe 5aed de3c
00000150: 3145 1ebe 6362 dabe d3ae 723e 3061 063d
00000160: 731f a63e 7f24 89bc 5941 83be 76e9 e43d
00000170: d575 8b3e f84c 023e fa73 033e b23b 6bbe
00000180: 1e7c ae3c 160f 6f3d e2db 6b3d d74c bd3d
00000190: 7272 943d cb58 8d3d c34b a13d 887f 6f3b
000001a0: 975f 33be decd e13d b011 e1bd a65c b73c
000001b0: c1fc 2bbe 65d3 83bd 13d6 48be d0cd 6bbe
000001c0: 43ac 093e b96c 543d 68d3 553e 6a9e 9a3c
000001d0: 2845 13bb eb97 b63c 050a debd d280 9f3d
000001e0: 4aca b63d 0d2a 063e 43f1 f73d 3013 0cbe
000001f0: 55d5 203e d0af 1cbd f6f0 abbe 75c6 043e
00000200: a767 63bd 6d0d 51be cd03 35be f1a8 7abe
00000210: 4340 52be ee1d 8fbd 0a7d 68bd ead1 84bd
00000220: 52eb a63d a50f 573d 1e48 1c3d 5c41 923d
00000230: b920 143d 89bf 5dbb 63df db3d 60a0 4cbe
00000240: 9fb4 8c3e cd9e ae3c 4969 9c3e 5308 62be
00000250: 43f5 48be b58e 773d 5058 043e 56aa 3a3e
00000260: 2122 36be 5a25 8bbd 16ac 86bd 3c6c 8d3d
00000270: fbe9 a93d 5f38 c9bd 15a6 adbd 76f1 9abd
00000280: a069 0ebc fc96 983e a800 4d3e b9e2 a03c
00000290: 4211 2b3e 7d2b 5f3e 66d7 0e3e 87e6 c03d
000002a0: 687a c8be 42bd e8bd 1998 0bbe 03e9 113d
000002b0: ce4e 6b3e 12d9 0f3d 4922 2a3e 070d c23d
000002c0: cd6b a8be 8811 71bd 4af8 673e 37cc 4bbd
000002d0: 4bff b8bd 74c8 e7bb cf7a da3d 89b2 1b3e
000002e0: 755a 4b3e 01a7 8cbe e84e 1fbe 649e 96bd
000002f0: cac3 823d e7bd 3cbd fbcb ab3b 18b3 a2bd
00000300: 7e5f ddbc 5987 b43c 93b1 5bbe 4143 b23d
00000310: b4e4 47be 429f ca3d 76dd 55bc bbb1 78bc
00000320: e97d 85be cacf 723b 9126 58be db60 c3bd
00000330: c232 2dbe 975b 1f3e 6271 23be 72b1 a1be
00000340: f2e5 403e 5eba 643e 00e6 01be 1bfd 1e3e
00000350: 9335 5c3e c37b 2c3e 5e9e d23d 0bfa 26bd
00000360: af52 aebe 6a82 ce3d 514a 103e b23c 8e3d
00000370: e098 e93d 16e8 26be 26a8 233e 7897 5cbc
00000380: 7e0c 7439 7097 4abd 3214 9c3d d32c 3c3e
00000390: 92fb 08bd 8adf 09bd cf0f c93d 1648 0ebe
000003a0: 0d3d f73d f3d1 2fbe 9811 113d 22ee 4c3d
000003b0: 7a61 1c3e b50c 9fbc 6065 023e 461e 2ebe
000003c0: f1e1 073e 76e9 5c3d d35b 39be f189 2a3d
000003d0: 9abf 113d 9e9e 43be beb2 aebd b1f6 86be
000003e0: bc9c adbd dc7c 98bd e35a 1fbe d1cb d339
000003f0: 4011 d63d ff19 10bd bf8e b63d 94a4 89bd

FC3.bias f4 [10]
-0.17448387 -0.115744874 0.055972904 0.0049330737 -0.030129233 0.025267476 0.10289011 -0.030230062
0.10459018 0.03217497
00000000: e6ab 32be a60b edbd d843 653d 9fa5 a13b
00000010: 95d1 f6bc bdfd ce3c 0db8 d23d 09a5 f7bc
00000020: 6033 d63d e7c9 033d
